[[10]
 [10]
 [ 0]
 ...
 [ 4]
 [ 8]
 [ 2]]
[[0. 0. 0. ... 0. 0. 0.]
 [0. 0. 0. ... 0. 0. 0.]
 [1. 0. 0. ... 0. 0. 0.]
 ...
 [0. 0. 0. ... 0. 0. 0.]
 [0. 0. 0. ... 0. 0. 0.]
 [0. 0. 1. ... 0. 0. 0.]]
Model: "sequential_22"
_________________________________________________________________
Layer (type)                 Output Shape              Param #   
=================================================================
conv2d_110 (Conv2D)          (None, 16, 16, 96)        2688      
_________________________________________________________________
max_pooling2d_66 (MaxPooling (None, 8, 8, 96)          0         
_________________________________________________________________
batch_normalization_66 (Batc (None, 8, 8, 96)          384       
_________________________________________________________________
conv2d_111 (Conv2D)          (None, 8, 8, 256)         614656    
_________________________________________________________________
max_pooling2d_67 (MaxPooling (None, 3, 3, 256)         0         
_________________________________________________________________
batch_normalization_67 (Batc (None, 3, 3, 256)         1024      
_________________________________________________________________
conv2d_112 (Conv2D)          (None, 3, 3, 384)         885120    
_________________________________________________________________
conv2d_113 (Conv2D)          (None, 3, 3, 384)         1327488   
_________________________________________________________________
conv2d_114 (Conv2D)          (None, 3, 3, 256)         884992    
_________________________________________________________________
max_pooling2d_68 (MaxPooling (None, 1, 1, 256)         0         
_________________________________________________________________
batch_normalization_68 (Batc (None, 1, 1, 256)         1024      
_________________________________________________________________
flatten_22 (Flatten)         (None, 256)               0         
_________________________________________________________________
dense_66 (Dense)             (None, 4096)              1052672   
_________________________________________________________________
dropout_44 (Dropout)         (None, 4096)              0         
_________________________________________________________________
dense_67 (Dense)             (None, 4096)              16781312  
_________________________________________________________________
dropout_45 (Dropout)         (None, 4096)              0         
_________________________________________________________________
dense_68 (Dense)             (None, 20)                81940     
=================================================================
Total params: 21,633,300
Trainable params: 21,632,084
Non-trainable params: 1,216
_________________________________________________________________
Epoch 1/100
391/391 [==============================] - 10s 24ms/step - loss: 3.0727 - accuracy: 0.1820 - val_loss: 2.9022 - val_accuracy: 0.2375

Epoch 00001: val_accuracy improved from -inf to 0.23750, saving model to AlexNet_CIFAR100.h5
…
